weights/evects.npy (npy, 3328 bytes, 1 tensors)

array f8 [20, 20]
000000 2a c2 31 51 81 fb 57 3f 0a 8c 89 c9 89 3d 31 3f
       0.0014637720931000111 0.00026306737848907967
000010 2f a8 e1 74 15 4f 1a 3f 69 00 e9 b5 a2 46 4b 3f
       0.00010036056957721315 0.0008323950276647565
000020 04 c9 fd d2 af f3 2e 3f f3 c5 f8 ee 16 a7 4c bf
       0.00023614426890678647 -0.0008744108180904195
000030 f7 66 30 99 d8 2d 42 3f 08 e4 c3 55 e3 51 40 bf
       0.0005547816857671407 -0.0004980430635718189
000040 29 61 ff 67 77 78 6e 3f 72 65 70 62 d0 0c 74 bf
       0.0037195522454390906 -0.004895032884655636
000050 2a cf bc 3b 38 14 63 bf 7f ad c1 bd a2 12 3c 3f
       -0.0023289774234402 0.0004283568685028091
000060 d1 e5 ad 64 72 46 77 bf 92 5c 36 1e ed 47 cb 3f
       -0.005682417725318926 0.21313251471722033
000070 92 9c dd f7 e0 d3 ed 3f 1c 2e 8b 1e c1 75 b4 3f
       0.932114109146726 0.07992178912825704
000080 cf 90 5d 43 74 30 d1 3f 7e f3 11 d0 b8 84 ae 3f
       0.26858240679417816 0.05960633792799451
000090 ce f2 ad 2f 9d 39 a9 3f d8 b4 d6 ab d7 63 a1 bf
       0.049267685003518844 -0.03396486256256431
0000a0 78 98 a3 ac 77 c3 9a 3f 78 25 d5 54 08 4e 9e bf
       0.02613627425389395 -0.02959454553391569
0000b0 4a f4 b8 e4 02 c8 ef bf 9e 8e d4 71 6b 41 b1 3f
       -0.9931654422031297 0.06740447548923575
0000c0 98 d7 31 ea 6c 7e b3 bf f7 c4 cd c1 09 a5 71 bf
       -0.07614784925121254 -0.004307783235035992
0000d0 c8 58 5f ab 36 32 a3 bf d3 d0 cc bf aa c0 81 bf
       -0.03749247400235017 -0.008668264368317946
0000e0 0e 92 81 fd 1a 69 80 bf 5b a0 34 3f 42 9a 88 bf
       -0.008012972699540401 -0.012012975267296768
0000f0 69 d1 2b 64 a1 2b 66 3f f7 e4 af 9d 41 8b 61 3f
       0.0027063514875129047 0.002141597896749499
000100 20 88 a7 6f d6 a3 51 3f 00 2f c0 60 55 bd 1c 3f
       0.0010766595938709392 0.00010963281255288101
000110 00 30 ee 5e b9 02 1e bf a0 66 11 67 71 e9 29 bf
       -0.00011448151029308518 -0.00019769200619883676
000120 80 3f 99 37 11 0f 42 3f 00 28 58 bd ec 25 3d bf
       0.000551112562968456 -0.0004447653749087843
000130 00 a0 39 75 14 4a 17 bf 00 b0 f7 83 c8 08 30 bf
       -8.88419138448393e-05 -0.0002446641483107026
000140 c2 cd ed 94 80 a3 58 bf bb c2 00 37 50 2b 61 3f
       -0.0015038257294833633 0.002095848722113961
000150 b0 c0 be b9 90 8d 5d bf 2b 4d d8 9b 29 f8 5a bf
       -0.001803771337090903 -0.0016460806213032901
000160 dc 80 29 eb 65 b6 60 3f 89 d5 04 fe d4 b7 61 bf
       0.0020400992009826768 -0.002162853241453437
000170 71 06 22 50 9f b8 6c 3f cc 0b 7e 4e 1b 33 59 3f
       0.003506003530731765 0.0015380636850472638
000180 20 02 19 5f 15 ad 95 3f b8 82 04 d2 d5 e1 73 bf
       0.021168073586752212 -0.004854045139183576
000190 1b c8 ed 2e 5f 87 95 bf 8a 43 96 30 00 6e 85 bf
       -0.021024214972790483 -0.010463716013676256
0001a0 e8 62 3e 7a 32 ec ef bf 55 e6 b7 03 93 06 92 bf
       -0.9975826633045388 -0.017603203870726187
0001b0 c9 53 ac b4 9e f9 6e bf 3b d8 4a 47 b1 99 ab 3f
       -0.003781137439896363 0.05390695567386713
0001c0 66 40 05 b6 e7 7c 87 bf 5f 5a e6 32 3c 59 8e 3f
       -0.011468706362080815 0.014818640044535756
0001d0 28 b4 a9 40 e7 10 8c bf a6 cd e6 76 68 3e 47 bf
       -0.01370411554418112 -0.0007093439178817342
0001e0 2d 2f 2c f7 2b 6e 37 3f 7b b6 4a 41 9e ef 42 bf
       0.0003575188958826355 -0.000577881119701209
0001f0 fd ce 79 e1 aa cf 42 bf 64 c5 7f 12 bc e7 99 3e
       -0.0005740723017439716 3.8601776219869216e-07
000200 1c 31 db ed d9 d5 2e bf 7a 43 fa 64 35 94 41 bf
       -0.00023525510089540062 -0.000536466666703913
000210 a2 b6 03 67 16 f6 5b 3f 54 f3 7e a6 f3 a9 2a 3f
       0.0017066210530702138 0.0002034292149327941
000220 0e 6a fb c0 d5 ac 2f bf 48 2d 4f 0d f9 cb 5f 3f
       -0.00024166211414107557 0.001940720763047592
000230 35 3b d5 46 90 29 1c bf 58 a5 ad a1 77 49 67 3f
       -0.000107430869055164 0.002842649131186075
000240 05 b1 30 58 bc d8 61 bf 62 d9 38 db 32 0e b5 bf
       -0.0021785429576280956 -0.08224790432072873
000250 47 c0 2b c2 4c 1a d3 3f 55 a3 0c 97 32 ca d2 bf
       0.2984802147102567 -0.2935911631671407
000260 c2 e2 bb a5 68 8c ea bf b0 a9 e4 fe 76 64 b6 3f
       -0.8296397435179517 0.08747047160128463
000270 87 3e 04 a2 24 ca c9 bf 1a 17 2e 63 e7 41 d2 3f
       -0.2014814177605226 0.28527245221663267
000280 34 c7 4f 6d c9 55 63 bf cc 44 36 a4 b4 e5 98 bf
       -0.002360242282969072 -0.02431375744123869
000290 66 63 d3 d7 1d 20 81 3f 07 b0 b0 7c 22 33 7f bf
       0.008362038754442924 -0.007617125239487882
0002a0 f9 f0 a4 47 c9 14 85 3f 0b d4 d0 de 97 54 88 3f
       0.010293552874479849 0.011880098807617775
0002b0 f8 07 eb 19 ce 6b a8 3f 25 15 36 83 8e 16 b6 3f
       0.047697487510518444 0.08628168776893526
0002c0 2b 85 56 50 9d a8 9b 3f 7a 27 74 b4 f4 55 ef bf
       0.02701040079921772 -0.9792426609503615
0002d0 ff ab 32 e8 1d 11 ba 3f 45 f9 65 9c 6c bc c1 bf
       0.1018236820115561 -0.1385627521194214
0002e0 19 1b 7e 10 54 13 73 3f 24 a1 75 33 1d d6 71 bf
       0.004657104851395721 -0.00435458571096373
0002f0 d0 48 f6 49 b6 f0 68 bf 29 28 14 ed 55 dd 7a bf
       -0.00304446795753064 -0.006558738373550845
000300 11 5e 9d 9c e4 61 4d bf 09 60 97 87 72 42 41 3f
       -0.0008966795223654419 0.0005267199732612592
000310 4c 7f a2 43 c9 f1 4f bf e3 90 79 ff 02 b8 3f bf
       -0.0009748680816023896 -0.0004839904135904972
000320 fa 3a 9e 94 2e 03 ad 3f b7 c8 0b 9b f9 a6 79 3f
       0.05666490139184606 0.00626275541502446
000330 67 ac b7 1c e8 1c 90 3f 37 32 2b 95 1e da a6 bf
       0.015735270264411485 -0.04463286944301042
000340 66 1c 0a 0a a9 80 cf 3f 1e ea 68 af 95 00 c3 3f
       0.24611390104493863 0.14845534386570675
000350 70 b6 f8 ff c0 55 ee bf fc aa e9 d9 83 fb b6 bf
       -0.9479680060810107 -0.08977531499992247
000360 bb c4 a1 6a 12 4e 6d bf 18 7d e4 db 22 df a4 bf
       -0.0035772666643017737 -0.04076489385829002
000370 4f c2 a7 9c 80 95 73 3f c3 52 ff 95 b6 39 ae bf
       0.004781248464937506 -0.05903406697294635
000380 2c 91 61 f6 df f0 65 bf b2 b3 59 8e 23 9e 3e bf
       -0.0026783346429956247 -0.00046718948428897255
000390 97 2f 55 38 94 7b 52 3f 0e 92 97 a4 cf 60 38 bf
       0.001128096338407913 -0.0003719813290372916
0003a0 eb f7 69 39 f9 bb 60 bf 19 86 b4 12 82 85 49 bf
       -0.002042757764967531 -0.0007788548586271121
0003b0 6e e9 5b 96 30 2f fd be e7 fc 24 37 dd 39 39 bf
       -2.7832350858661278e-05 -0.0003849186970405608
0003c0 47 dc 3e f6 c3 f6 aa 3f cd 6f c4 7b 22 96 91 3f
       0.0526639211743079 0.017174280933531173
0003d0 ed 51 bb 63 7e cd a0 bf 36 ec 59 4d ba 59 ed bf
       -0.032817792581827245 -0.917203093601876
0003e0 da ea 29 d8 cb b2 d4 bf c6 7f 8d 2e 15 64 ca bf
       -0.3234128581022283 -0.20617928288538517
0003f0 cf fd 37 d4 ca 93 b0 bf eb ee ae 44 f8 44 a6 bf
       -0.0647551315414525 -0.043494947799869475
000400 c8 03 a8 33 97 0b 84 bf 62 b5 0b 0e 5e 36 7c bf
       -0.009787732376027494 -0.006887786294766359
000410 a3 0b 30 e8 01 31 9d bf ed 59 e1 1b 6e 46 95 bf
       -0.028507261082278423 -0.020776482059170865
000420 ad 04 1b 9c 62 45 5a 3f 31 5c be 97 d4 d6 6b 3f
       0.0016034567819789667 0.0033983375742070655
000430 ee 58 27 6a c1 f9 00 bf 53 8a 23 b8 a1 62 f1 be
       -3.237840180119073e-05 -1.6579895153587893e-05
000440 46 b3 b7 0b 49 50 3c bf 3d d4 03 91 7d b4 40 bf
       -0.0004320314726260942 -0.0005097973935607247
000450 99 ac e9 e3 31 92 1e bf ad 6e 43 e4 ce bf 31 bf
       -0.00011661939149980523 -0.00027083207193155206
000460 24 e1 62 48 6f 32 84 3f 5f 3f 1d 50 f4 59 b1 bf
       0.009861821552803969 -0.06777884441293967
000470 f4 83 4c 69 df 65 a3 3f bb c3 53 8b 0c 5d d0 3f
       0.03788660202395269 0.25567926031277083
000480 61 04 69 b3 1e e3 b6 bf 6d 60 49 3b fc 23 ee bf
       -0.08940307502872848 -0.9418927343313165
000490 c5 65 87 8a 19 ab c6 bf 8a 0b 49 f5 12 19 a3 bf
       -0.1770965505991581 -0.03730067486005513
0004a0 24 af de e4 62 f5 67 bf 98 c9 34 2c c5 cf 97 bf
       -0.0029246264957317903 -0.023253517935879126
0004b0 07 a7 0c cb a9 b4 6c 3f 32 96 60 ed b0 71 75 bf
       0.0035041157028857825 -0.005235377428140663
0004c0 77 1b 7a 82 8f 21 44 3f ed fd 27 44 c0 0e 55 bf
       0.0006143522959555077 -0.001285255203242626
0004d0 ed 5d e4 ef e5 00 49 bf 8c e7 3a 56 94 1c 41 3f
       -0.0007630465259209053 0.0005222057629545736
0004e0 de 20 4f 41 6d ac 2f bf 96 ca 5e ce 22 27 3b bf
       -0.0002416499488886508 -0.00041431998976829956
0004f0 6a 86 7d f6 61 91 d8 3e e6 71 8a 5a 98 82 2d bf
       5.8574440585393325e-06 -0.00022514447961875724
000500 75 09 0f 04 b0 54 52 3f f8 3b 98 f9 11 85 24 3f
       0.0011188239006832666 0.00015655369206554726
000510 28 ac 9f df 83 cc 26 bf 30 35 05 61 f5 dd ed 3e
       -0.00017394170555404373 1.4241707532970134e-05
000520 81 38 ed 80 b5 a6 39 bf 03 ef a7 47 56 be 44 3f
       -0.0003914063571998153 0.0006330415047268448
000530 91 64 1c 67 9c d1 32 bf 40 db 6e d3 b6 8e 52 bf
       -0.00028715198924229255 -0.001132658520629895
000540 53 85 3e ff 82 88 60 bf d5 48 49 2b 01 11 74 bf
       -0.0020182188545311646 -0.004899029318567301
000550 a9 32 44 f7 54 aa 7b 3f b1 61 23 6a cc a4 6e 3f
       0.006754238031373796 0.0037406914208128685
000560 50 08 48 99 9c 4e ad 3f eb 00 ab 15 0f f1 9f 3f
       0.057240384780030795 0.031193004319676126
000570 09 50 d4 f5 07 4f a0 bf 16 a2 3b 2e 33 7c eb 3f
       -0.03185295940252792 0.8589111235606335
000580 6a da 44 e4 54 f7 c6 bf ba ff 04 d6 4e 64 d6 3f
       -0.17942296167321398 0.3498723115953869
000590 db f0 85 3d bf d7 d3 bf 1b 8e 0c e6 c5 22 b4 3f
       -0.3100431538403094 0.07865559450561259
0005a0 31 ec ef 14 97 31 af bf 6c 4f fc d9 22 b9 ef 3f
       -0.060925217920122406 0.9913496263056749
0005b0 77 b6 ae 15 18 cc a1 bf 1f fe 35 82 33 8c 88 3f
       -0.034760239264284225 0.011986162577840407
0005c0 46 ec a9 c9 87 f7 af 3f 59 a7 ce cc fa bd b3 bf
       0.062435382239492784 -0.0771176099794081
0005d0 eb c9 2d ef bc 91 80 3f 06 de dd 0d 29 c3 7f 3f
       0.00809047322193109 0.007754478805388048
0005e0 9c 45 8c dc 35 fc 9b bf 1b 8e 38 d3 0a 49 95 bf
       -0.027329293810060315 -0.020786446706678157
0005f0 71 42 b1 f0 4d b6 70 bf f5 20 c4 ab dd 12 a0 bf
       -0.004080109075474612 -0.03139393541101924
000600 7a 15 19 e6 85 11 64 3f 36 5b d1 d3 88 e9 5a 3f
       0.0024497618876774792 0.001642593021889472
000610 10 df 87 85 76 ea 33 bf 24 01 b5 f5 24 ff 39 bf
       -0.00030389207452639986 -0.0003966775163526551
000620 f9 24 d5 11 8b 03 50 bf d6 a3 9b 1d 5c 17 30 bf
       -0.0009774072744497804 -0.0002455329791773408
000630 a6 85 5b 62 7a d3 21 bf cc 26 12 4b db 93 25 bf
       -0.00013600224445213283 -0.00016462375564101626
000640 5c 54 6e 6d e3 82 b0 3f 9d 58 1c 50 16 5b 97 bf
       0.0644971983113733 -0.02280840743977618
000650 b8 d3 89 5d 51 00 71 bf 4e f4 a0 63 5f eb 86 3f
       -0.004150693734676851 0.011191125133445248
000660 34 d3 05 e3 13 63 7d 3f b5 9c fd 6b ff e7 78 bf
       0.00717456596645576 -0.006080625287587062
000670 2f 75 0d b5 58 75 aa 3f 9e 4f 2d d4 3f 48 b0 3f
       0.05167653284181949 0.06360243730642742
000680 12 89 d3 74 3c 3b b3 3f 88 56 5a aa 6d bd c4 3f
       0.07512262203411904 0.16203089540492877
000690 76 e4 0e ca 8e 25 c2 3f 3a 57 38 59 25 f4 ee bf
       0.1417711722004104 -0.9673029654102046
0006a0 47 6f 0c 2e cb 17 80 3f 9f 69 76 d8 be b3 98 3f
       0.007857882826605723 0.024123174630952367
0006b0 78 58 a8 f2 ac fc 62 bf 44 5c f2 d1 18 34 5b 3f
       -0.002317750729399267 0.0016603701003867913
0006c0 26 58 b2 36 ab 70 7c bf ae 2c 5a 87 1e 52 50 bf
       -0.006943386844019661 -0.0009961412555721627
0006d0 66 5b 1e f4 cf b1 33 bf b1 39 6b 8d 2e fa 49 bf
       -0.00030051543228053754 -0.0007927634531712994
0006e0 99 8a 66 94 fd e1 8f bf e2 e4 e0 fc 06 40 b2 3f
       -0.015567761508298349 0.07128947900573082
0006f0 87 85 49 35 ca 05 b8 3f e0 3f f8 59 da 6b d2 3f
       0.09383834649044874 0.28783282075982974
000700 f4 52 76 45 19 df ec bf f1 b4 20 29 90 11 ca 3f
       -0.902233729999891 0.20366098411742642
000710 fc 99 9b 9a 9c a8 ca bf 6c 5d 6c 26 bc d1 a3 bf
       -0.20827062176904565 -0.03870952576670103
000720 53 fb d6 4a 93 ff 99 bf ef 9c 79 3c 53 17 97 bf
       -0.025389005129677965 -0.02254991585359972
000730 b6 da be e3 f8 d7 97 bf a9 2a b6 32 cd 52 9f bf
       -0.02328480615661973 -0.030589300365628933
000740 20 aa 15 7d db 3f 6a bf 16 7a 8a f7 34 96 53 3f
       -0.003204277695364924 0.0011954800849377548
000750 d9 29 b4 cb 14 90 22 3f 52 dc 9e 3f 9e 41 36 bf
       0.0001416230569265115 -0.00033960450638965023
000760 b9 1d 55 e7 ae e9 43 bf 54 68 b0 3d bb da 3e bf
       -0.0006076911946956621 -0.0004708010798723007
000770 28 e9 af 41 ec 59 29 bf 79 c0 87 06 2b 01 30 bf
       -0.00019341477386076414 -0.00024421024730170816
000780 49 17 74 1d dd ec 46 bf c4 3f 2a 46 b8 73 32 3f
       -0.000699623075804048 0.00028155564192733026
000790 a2 1f ab 87 5f 6a 37 bf fa 3c 55 54 88 d6 35 bf
       -0.0003572924830845763 -0.00033322170596235235
0007a0 45 6d 2e 8d d7 70 3c bf 2d 0e 54 e3 39 23 37 bf
       -0.00043397200095692353 -0.0003530517891052489
0007b0 a1 e3 10 5c 1a 04 52 bf a2 96 08 3d 6d 21 4b bf
       -0.0010996110361374061 -0.0008279593840298703
0007c0 28 73 94 4a c0 1f 3b bf c7 e1 ea 8c 90 57 59 3f
       -0.0004138798199891263 0.0015467559457374867
0007d0 c3 6a cb 91 6a 08 58 bf 40 a5 f3 6d a3 c3 6a bf
       -0.0014668503492233787 -0.003267115782013136
0007e0 33 20 c4 22 da 00 73 bf 46 4c d5 d7 97 9a 9c bf
       -0.004639484494198642 -0.027933476017391955
0007f0 06 3b 1f a8 42 6d b4 bf 75 fa d4 c4 ee 7e c8 bf
       -0.07979218105831984 -0.19137367831168076
